default_state_dict.pt (torch, 5783 bytes, 6 tensors)

model.diffusion_model.out.0.weight f2 [320]
00000000: 8234 3334 9034 9132 9c34 3e34 1c34 0434
00000010: 3434 e32e b334 7f35 de34 dc34 3b34 a734
00000020: 0b34 4134 2641 4b33 5e35 f236 9635 c132
00000030: f732 b335 6a36 c835 ef34 6139 e234 7f34
00000040: 8034 5535 b534 6440 3235 d634 5a34 cd34
00000050: 2a35 0a35 fb35 ba35 0c36 8e34 9935 b236
00000060: 6b34 0641 5d34 722e ce34 8234 0332 7535
00000070: 4d35 0f35 ac35 f834 a440 f434 4534 cd34
00000080: 7a34 6434 4a34 4d34 b634 2e35 5640 a036
00000090: c734 5a35 0936 b337 e934 dc33 b834 5534
000000a0: 6542 8b36 2f34 3035 7d34 5835 7934 7a34
000000b0: 1a35 7135 9e30 3d38 1c32 f131 3434 9335
000000c0: 5736 ad35 5637 0333 2a33 d135 e135 ce33
000000d0: 2235 6134 4b41 7535 4235 c534 9641 fe34
000000e0: f334 2c35 b233 fb35 7936 3436 bf35 a535
000000f0: 1538 1c38 9135 d937 0437 8033 2d35 b737
00000100: c72e e833 0a35 fa34 4c35 6434 6434 b834
00000110: 9a40 1b37 a333 b534 c637 d637 a936 fc33
00000120: c832 9534 b143 fa36 6534 2f33 5e36 db32
00000130: 2833 9835 1d34 cc36 5734 7e35 0238 a940
00000140: 3035 3034 4334 9934 b534 de40 e834 0336
00000150: c734 8934 3238 4f34 4434 5734 ea34 c335
00000160: 5033 c431 b934 4c33 5535 1a35 2d35 1936
00000170: ca36 0740 be32 d635 3735 9b36 f536 9134
00000180: 8f34 4240 b334 cb34 7a34 2834 0a34 d834
00000190: 3734 5d3d 9035 9e34 8534 dc35 5e35 b634
000001a0: 4233 fb34 5230 b034 8d35 9734 fd36 b334
000001b0: e236 0936 a431 3e34 9c33 a234 9434 0735
000001c0: 4a35 1e35 7a35 1b36 3535 8141 8b34 703d
000001d0: bb35 c834 c034 6535 d034 d534 ff32 e833
000001e0: d134 cf34 bf33 7a35 3035 523d 2035 6333
000001f0: 6134 7034 b134 9c34 e834 9b34 7734 1534
0.2817 0.2625 0.2852 0.2052 0.288 0.2651 0.2568 0.251
0.2627 0.1076 0.2937 0.3435 0.3042 0.3037 0.2644 0.2908
0.2527 0.2659 2.574 0.2279 0.3354 0.434 0.349 0.211
0.2177 0.3562 0.401 0.3613 0.3083 0.6724 0.3052 0.281
0.2812 0.3333 0.2942 2.195 0.3247 0.3022 0.272 0.3
0.3228 0.315 0.3738 0.358 0.378 0.2847 0.3499 0.4185
0.2761 2.512 0.2727 0.1007 0.3003 0.2817 0.1879 0.341
0.3313 0.3162 0.3545 0.3105 2.32 0.3096 0.2668 0.3
0.2798 0.2744 0.268 0.2688 0.2944 0.3237 2.168 0.414
0.2986 0.3345 0.3772 0.4812 0.307 0.2456 0.295 0.2708
3.197 0.409 0.2615 0.3242 0.2805 0.334 0.2795 0.2798
0.3188 0.34 0.1443 0.53 0.1909 0.1857 0.2627 0.3484
0.3962 0.3547 0.4585 0.2191 0.2239 0.3635 0.3674 0.2439
0.3208 0.2737 2.646 0.341 0.3286 0.298 2.793 0.312
0.3093 0.3232 0.2405 0.3738 0.4045 0.3877 0.3591 0.3528
0.5103 0.5137 0.348 0.4905 0.4385 0.2344 0.3235 0.4822
0.1059 0.2471 0.315 0.311 0.331 0.2744 0.2744 0.295
2.3 0.444 0.2386 0.2942 0.4858 0.4897 0.4163 0.2495
0.2119 0.2864 3.846 0.436 0.2747 0.2245 0.398 0.2142
0.2236 0.3496 0.257 0.4248 0.2712 0.3433 0.501 2.33
0.3242 0.2617 0.2664 0.2874 0.2942 2.434 0.3066 0.3757
0.2986 0.2834 0.5244 0.2693 0.2666 0.2712 0.3071 0.36
0.2285 0.1802 0.2952 0.228 0.3333 0.3188 0.3235 0.381
0.4243 2.014 0.2107 0.3647 0.326 0.4128 0.4348 0.2854
0.285 2.129 0.2937 0.2996 0.2798 0.2598 0.2524 0.3027
0.2634 1.341 0.3477 0.2886 0.2825 0.3662 0.3354 0.2944
0.2268 0.3113 0.135 0.293 0.347 0.2869 0.4368 0.2937
0.4302 0.3772 0.1763 0.2651 0.2378 0.2896 0.2861 0.3142
0.3306 0.3198 0.3423 0.3816 0.3254 2.752 0.284 1.359
0.3582 0.2988 0.2969 0.3372 0.3008 0.302 0.2186 0.2471
0.301 0.3005 0.2421 0.3423 0.3242 1.33 0.3203 0.2308
0.2737 0.2773 0.2932 0.288 0.3066 0.2878 0.279 0.2551

model.diffusion_model.out.0.bias f2 [320]
00000000: 26a8 46aa 3aa4 0eae 9fa5 f7a6 64a6 b0a3
00000010: b5a7 092c 5aad 2ea6 58ad dcac 38ae a3aa
00000020: 0baf 17ae 9cc3 a4ae b0ad 5fae a0ac 8aad
00000030: 7cae c3ac 75ae 25ab f6a7 7fc5 83ad f0ad
00000040: 72ad 99ad 0bad e5c3 05ae e4ad 63ad 75ad
00000050: 44ad 2bad 82ad 97ae 7cad 32af 1fab 29ad
00000060: c7af f9c4 5e26 2d29 82a5 23ab c9ac 61a9
00000070: 89a6 f5a8 cfa5 11a9 d3c4 49ad e1ad 8cad
00000080: 76ad e1ad 74ad 25ad cbad f1ad 1ec5 5dad
00000090: e9af ccae e1ad 47ae 64ad a1af dcac 68ae
000000a0: 77c4 9aae 8fad ebad 30ae 1bae ddad 03ad
000000b0: 44af daae df28 e5aa 45a9 f32a 0da9 6aaa
000000c0: cfaa 23ab d7ac 70b0 a0ae 31ad 32a8 03af
000000d0: f9ac 57af 46c5 d9ad 08ad 61af a3c3 e9ae
000000e0: 2cad eead a5af 7ead abab 81af 0cb0 3ead
000000f0: 0bab eaa9 29a4 93aa 7aa6 f4a7 1825 f9a8
00000100: f9a9 35a8 2aad a4ad 80ad 8cad 18ae d3ad
00000110: 50c4 cdae 1dae 43ad 01af 82ad f5ad 17b0
00000120: 67ae 39ae 4dc1 97ab b8a9 07af 7dad c0ae
00000130: 29ae 24ae 71ae aeac 7bae 14ae e7ae 80c5
00000140: abad 38ae edad 6eae e8ad 5fc4 1cae d3ac
00000150: 58ad 71ad 5da8 f9a9 ef1d d9a6 289c 8eab
00000160: cea3 ebaf 3fa4 132c fdad 2bae 6fae ddad
00000170: 65ae e9c4 9fb0 21ae 8eac 04ae 1fad ddad
00000180: bbad 5bc4 b9ad d9ad 91ad ddad f5ac aaae
00000190: d2ab b0c4 1eae eaad b4ad a5ac 55ae 81ad
000001a0: 85ae b4ae e92e d6a7 9dab 93ab 8695 a1aa
000001b0: 5da8 78aa 01ae 18ab 54ae 2eae 09ad cdad
000001c0: 3aad 14ae 51ac 64ae 1dae 09c4 7aad b7c3
000001d0: 8fac 12aa 78ad 63ad 48ad d2ac b6ae 42ae
000001e0: d9ae 7bae 24ac 64ac 95ae 2fc4 4dae 41a2
000001f0: d9ae 7daf 48ad a5ad d0ad 82ad c0ad 89ad
-0.0324 -0.049 -0.01651 -0.0946 -0.02196 -0.0272 -0.02496 -0.015015
-0.0301 0.06305 -0.0836 -0.02414 -0.0835 -0.0759 -0.09717 -0.05185
-0.11005 -0.09515 -3.805 -0.10376 -0.08887 -0.09955 -0.07227 -0.08655
-0.1013 -0.0744 -0.1009 -0.05582 -0.0311 -5.496 -0.0861 -0.0928
-0.0851 -0.08746 -0.0788 -3.947 -0.09406 -0.09204 -0.08417 -0.08527
-0.0823 -0.08075 -0.08606 -0.10297 -0.0857 -0.1124 -0.05563 -0.0806
-0.1215 -4.973 0.02487 0.04044 -0.02151 -0.05576 -0.07477 -0.04202
-0.02553 -0.03873 -0.02269 -0.03958 -4.824 -0.0826 -0.09186 -0.0867
-0.0853 -0.09186 -0.0852 -0.0804 -0.0905 -0.09283 -5.117 -0.0838
-0.1236 -0.1062 -0.09186 -0.0981 -0.0842 -0.1192 -0.0759 -0.1001
-4.465 -0.10315 -0.08685 -0.09247 -0.0967 -0.0954 -0.0916 -0.0783
-0.1135 -0.10706 0.03806 -0.05386 -0.04117 0.0543 -0.03946 -0.0501
-0.0532 -0.05576 -0.0756 -0.1387 -0.1035 -0.0811 -0.03278 -0.10956
-0.0777 -0.1147 -5.273 -0.0914 -0.0786 -0.1153 -3.818 -0.108
-0.0808 -0.09265 -0.11945 -0.0858 -0.0599 -0.11725 -0.1265 -0.0819
-0.05502 -0.0462 -0.01625 -0.05136 -0.0253 -0.03107 0.0199 -0.03885
-0.04666 -0.03287 -0.0807 -0.08813 -0.08594 -0.0867 -0.0952 -0.091
-4.312 -0.10626 -0.0955 -0.0822 -0.10944 -0.08606 -0.0931 -0.1278
-0.10004 -0.0972 -2.65 -0.0593 -0.04468 -0.1098 -0.08575 -0.10547
-0.09625 -0.09595 -0.10065 -0.0731 -0.10126 -0.095 -0.10785 -5.5
-0.08856 -0.09717 -0.0926 -0.10046 -0.0923 -4.37 -0.09546 -0.0754
-0.0835 -0.085 -0.0341 -0.04666 0.005795 -0.02675 -0.00406 -0.05902
-0.01524 -0.1237 -0.01659 0.06366 -0.09357 -0.0964 -0.1005 -0.0916
-0.0999 -4.91 -0.1444 -0.09576 -0.07117 -0.094 -0.08 -0.0916
-0.08954 -4.355 -0.0894 -0.0914 -0.087 -0.0916 -0.07745 -0.1041
-0.0611 -4.688 -0.0956 -0.0924 -0.0891 -0.0726 -0.09894 -0.086
-0.10187 -0.10474 0.108 -0.03061 -0.05948 -0.05917 -0.0013485 -0.0518
-0.0341 -0.05054 -0.0938 -0.05542 -0.0989 -0.09656 -0.0787 -0.09064
-0.08167 -0.095 -0.06744 -0.09985 -0.0955 -4.035 -0.0856 -3.857
-0.0712 -0.04742 -0.08545 -0.08417 -0.0825 -0.0753 -0.10486 -0.0978
-0.107 -0.10126 -0.0647 -0.0686 -0.10284 -4.184 -0.09845 -0.012215
-0.107 -0.117 -0.0825 -0.0882 -0.0908 -0.08606 -0.08984 -0.0865

first_stage_model.encoder.norm_out.weight f2 [512]
00000000: 1e3c 203c 9b3c 0d3c ab3b 173c 053c 383c
00000010: 603b b03b 073c e03b 423c 473c f63b 013c
00000020: 2f3c 243c 813a 823b f53b 343c 083c 763c
00000030: 403c ce3b aa3c 123c 743a 093c 013c 143c
00000040: ec3b a43c b43c b93c 1d3c eb3b 8b3c 903a
00000050: 703b 953c 013c 483b 1a3a d53c 223c c03c
00000060: e73a 1f3b 0f3c b33b f23b 853c 2d3c c43b
00000070: 1c3c 303c 1c3b 0d3c 423a 833c 373b f93b
00000080: 863a 403c 1e3c ec3a 043c 633c 983a 293d
00000090: 2e3b 133b ef3c 353d 023b b938 363c f13c
000000a0: 613b 243c 013c fc3b 703b 683b 7b3b 693c
000000b0: 363c da3b 0a3c 363c e73b bc3b 373c 003c
000000c0: 353b 6d3b e93c 0a3c af3b 493c 153c 133c
000000d0: a53b 403c d73b f83b 113c 473b 173c fa3b
000000e0: 7b39 da3c 1e3c d83b eb3c 863b dd3b 723c
000000f0: 7c3c 643b 5c3c ec3b 4f3c 183b 5d3c a93b
00000100: 663c 113c c23c 073c 043c fc3b e33b bb3b
00000110: 103c 113c fe3b 003c 6e3c 963b ee3b 673c
00000120: 173a 373c 883b 223c 063c 573c 413c 193c
00000130: 1a3c e83b c33c 803c 1e3c 7a3c d13b 1d3c
00000140: 243c 823b 303b 433b 8b3b 8b3a 383c 6a3c
00000150: ae3c 213d 733c 623c 7b3a a03b fe3a cd39
00000160: 223b f73c ff3b 153d 5b3b e83c 073a b33c
00000170: ad3c 793c 193a 0e3d ca3c 0f3d 113c a03a
00000180: 2f3c 333c 5d3c 633b c03b 813b 423c f43b
00000190: 4e3c 973c 8d3c 0d3c 923b 093c 093c de3b
000001a0: a03b 543b 5a3a 9938 363d 443b 213d 183c
000001b0: dc3d 403d 2d3a 103e 0a3d bf3c 7839 b23a
000001c0: ae3b 043c cd3a ba3b 3e3c dd3b 7c3c 0f3c
000001d0: ea3b 803a 553b fb3b 1c3b c13b 903c bf39
000001e0: fb3b d83b 0f3d 653b bf3c f43b 563c 253c
000001f0: 0f3c 123c 103c 5e3c 4a3b 413a 093c 563b
1.029 1.031 1.151 1.013 0.9585 1.022 1.005 1.055
0.922 0.961 1.007 0.9844 1.064 1.069 0.995 1.001
1.046 1.035 0.813 0.9385 0.9946 1.051 1.008 1.115
1.0625 0.9756 1.166 1.018 0.8066 1.009 1.001 1.02
0.99 1.16 1.176 1.181 1.028 0.9897 1.136 0.8203
0.9297 1.1455 1.001 0.91 0.7627 1.208 1.033 1.1875
0.863 0.89 1.015 0.9624 0.993 1.13 1.044 0.9707
1.027 1.047 0.8887 1.013 0.782 1.128 0.902 0.9966
0.8154 1.0625 1.029 0.865 1.004 1.097 0.824 1.29
0.8975 0.8843 1.233 1.302 0.876 0.5903 1.053 1.235
0.9224 1.035 1.001 0.998 0.9297 0.926 0.935 1.103
1.053 0.9814 1.01 1.053 0.988 0.967 1.054 1.0
0.901 0.928 1.228 1.01 0.9604 1.071 1.0205 1.019
0.9556 1.0625 0.98 0.996 1.017 0.9097 1.022 0.997
0.685 1.213 1.029 0.9805 1.2295 0.9404 0.983 1.111
1.121 0.924 1.09 0.99 1.077 0.8867 1.091 0.9575
1.1 1.017 1.189 1.007 1.004 0.998 0.986 0.9663
1.016 1.017 0.999 1.0 1.107 0.948 0.991 1.101
0.761 1.054 0.9414 1.033 1.006 1.085 1.063 1.024
1.025 0.9883 1.19 1.125 1.029 1.119 0.977 1.028
1.035 0.9385 0.8984 0.9077 0.943 0.818 1.055 1.104
1.17 1.282 1.112 1.096 0.81 0.953 0.874 0.725
0.8916 1.241 0.9995 1.2705 0.9194 1.227 0.7534 1.175
1.169 1.118 0.762 1.264 1.197 1.265 1.017 0.828
1.046 1.05 1.091 0.9233 0.9688 0.938 1.064 0.994
1.076 1.147 1.138 1.013 0.9463 1.009 1.009 0.9834
0.953 0.916 0.794 0.5747 1.303 0.908 1.282 1.023
1.465 1.3125 0.772 1.516 1.26 1.187 0.6836 0.837
0.96 1.004 0.85 0.966 1.061 0.983 1.121 1.015
0.9893 0.8125 0.9165 0.9976 0.8887 0.969 1.141 0.7183
0.9976 0.9805 1.265 0.9243 1.187 0.994 1.084 1.036
1.015 1.018 1.016 1.092 0.911 0.7817 1.009 0.917

first_stage_model.encoder.norm_out.bias f2 [512]
00000000: 0ba4 a51b abac 071b b7a9 2d24 d1a7 15a3
00000010: edab fd2f c5aa 76a9 fe16 70ac e91b 5caa
00000020: d7a5 28a1 f7b1 85ab 19a1 0b28 8420 8ca4
00000030: 1dad 10ac a61d a1ac 10ad c31c fb9e 74a8
00000040: c0a8 1fb0 e6ab 50ad b8a8 77ae 69ac f5b3
00000050: 77ae b0ae 1da9 66b1 e7b2 04ad 3aad 0ca7
00000060: b5ae 84af b223 c7ae 04a5 311e 12a0 0fac
00000070: 17a8 44a6 24ab ab9e e6b0 252a 2bb1 2faa
00000080: a5b3 adae 19b0 75b0 66b0 9dae b9b2 91ae
00000090: 0bb0 10b1 faab 97a8 d6b1 19b8 b9ad f8ac
000000a0: f627 f0a9 23a9 261d 70ab 81ad 3eaa 6026
000000b0: 04a0 2da8 a7a6 96a8 89a7 e0a9 e7a4 9da8
000000c0: 96ad 1fab 5ab1 3c91 caaa f0a8 f1a6 b6ad
000000d0: 9fa8 9fa7 7aa8 491a cc1e 4fad f3ab 30aa
000000e0: b4b1 8ba6 dea6 edae 0aa7 14ae dba4 f2a8
000000f0: 6ea5 6fac 001f b49d 6da7 efad b7ab c5a7
00000100: 3e20 fb20 dc8e 679d aa1e 00a2 c128 0730
00000110: 67a0 8706 2aa8 ad18 45a6 25a9 cda7 eeaa
00000120: 04b4 0eb0 b7ad 3196 4520 10a1 ad28 d59d
00000130: 55a1 c89f 109b fba8 01b1 54ad eaa9 7fa7
00000140: 0faf a1ae 28ad 52b0 afac 32b1 1fb1 bda2
00000150: d4aa 0aa8 75ad f9ad 9cb3 36ad cfb0 64b4
00000160: c3b6 9aae e1ac 93a8 23b4 e2ae 72b4 44b1
00000170: f9ac ccb0 dcb5 dbaf 83ad 96a9 ccb0 d2b3
00000180: f9a0 0c1b 7f1d 9b2f 89a5 88aa 3a25 9fa0
00000190: 41ac 9ca3 7926 cfa4 4ea5 4522 249c 9aa7
000001a0: 2cb1 41b2 8bb1 27b7 a9aa c7af 79af e3b0
000001b0: c0ad cdab beb5 1dae 03b1 e1b2 2eb7 fcb0
000001c0: 74ac 13ae 76b3 85ac aea6 c5b2 e7a7 49ad
000001d0: 84aa 38b4 ddad f7a9 30b0 f2ae 50a1 b3b4
000001e0: 059d a2a8 25ad 5dab 599e 8aa9 01a8 9ea3
000001f0: b31d b5a4 77a2 99a5 7baf 23b0 b31f e4ad
-0.0158 0.003733 -0.07294 0.003431 -0.04465 0.01631 -0.03053 -0.01383
-0.06192 0.1248 -0.0529 -0.04266 0.001707 -0.06934 0.003862 -0.04968
-0.02281 -0.01007 -0.1864 -0.05875 -0.00996 0.0316 0.00882 -0.01776
-0.0799 -0.0635 0.005516 -0.0723 -0.0791 0.00465 -0.006817 -0.0348
-0.0371 -0.1288 -0.0617 -0.083 -0.03687 -0.101 -0.0689 -0.2487
-0.101 -0.1045 -0.03995 -0.1687 -0.2157 -0.07837 -0.08167 -0.02753
-0.1048 -0.11743 0.01503 -0.1059 -0.01959 0.006046 -0.00795 -0.0634
-0.03195 -0.02448 -0.0558 -0.00651 -0.1531 0.048 -0.1615 -0.0483
-0.2389 -0.1043 -0.128 -0.1393 -0.1375 -0.10333 -0.2101 -0.1026
-0.1263 -0.1582 -0.06232 -0.03586 -0.1824 -0.512 -0.0894 -0.07764
0.0311 -0.0464 -0.04013 0.005028 -0.0581 -0.086 -0.04877 0.0249
-0.00784 -0.03262 -0.02599 -0.03583 -0.02943 -0.0459 -0.01915 -0.03604
-0.0873 -0.05563 -0.1672 -0.000639 -0.05304 -0.03857 -0.02711 -0.08923
-0.0361 -0.02977 -0.03497 0.003069 0.006638 -0.08295 -0.0621 -0.04834
-0.1782 -0.02556 -0.02682 -0.1082 -0.0275 -0.095 -0.01897 -0.03864
-0.02121 -0.0693 0.006836 -0.00557 -0.029 -0.0927 -0.06027 -0.03035
0.008286 0.00973 -0.0004187 -0.005276 0.006508 -0.01172 0.03714 0.1259
-0.0086 9.96e-05 -0.03253 0.002283 -0.02449 -0.0402 -0.03047 -0.05414
-0.251 -0.1267 -0.0893 -0.001512 0.00834 -0.00989 0.03653 -0.005695
-0.010414 -0.0076 -0.003448 -0.0389 -0.1564 -0.08325 -0.0462 -0.02928
-0.1103 -0.1036 -0.08057 -0.135 -0.0732 -0.1624 -0.16 -0.01316
-0.05334 -0.03156 -0.08527 -0.0933 -0.2378 -0.0814 -0.1503 -0.2744
-0.4226 -0.10315 -0.07623 -0.03574 -0.2585 -0.10754 -0.2778 -0.1646
-0.0777 -0.1499 -0.3662 -0.12274 -0.0861 -0.04364 -0.1499 -0.2444
-0.00971 0.00344 0.005367 0.11884 -0.02162 -0.05103 0.02042 -0.009026
-0.06647 -0.01486 0.02528 -0.01878 -0.02072 0.012245 -0.004044 -0.0297
-0.1616 -0.1954 -0.1732 -0.447 -0.05203 -0.1215 -0.11676 -0.1527
-0.08984 -0.06094 -0.359 -0.0955 -0.1566 -0.215 -0.4487 -0.1558
-0.0696 -0.0949 -0.2332 -0.0706 -0.0261 -0.2115 -0.03087 -0.0826
-0.0509 -0.2637 -0.0916 -0.0466 -0.1309 -0.1085 -0.010376 -0.2937
-0.0049 -0.0362 -0.0804 -0.05753 -0.0062 -0.04327 -0.03128 -0.01488
0.005566 -0.01839 -0.01263 -0.02187 -0.1169 -0.1293 0.00752 -0.09204

first_stage_model.decoder.norm_out.weight f2 [128]
00000000: 8b39 433c 5039 443a 8e3b 603a 933b 253a
00000010: 413b f33b f23a fa3a a43a 843a f339 bc3a
00000020: 263a d23b ae38 a43b 543b 853b 433a e43b
00000030: 923a bc3b 603c 343b 6c3c ee39 1d3a f939
00000040: d03b 8e3b 453b b03a 063c 2e3c 673b 423a
00000050: 6c36 5d3c 263b 9f3b 083b e23b 823a a73a
00000060: 8a3b 9f3a 873b d33a 4e3a 533a 013c 683a
00000070: 7c3a 673c 8239 6f39 7737 2a3c 293b 5239
00000080: 3c3b b03a 2f3a 023b 1739 8f3b 5b3b 9f3b
00000090: 7d39 683c 033a 4b3b bf39 783b 373b 0d3c
000000a0: a239 e939 343c a53b 4f3b dd3b da3b 4e3b
000000b0: c439 d43a a13a c13a 033a 743c 523c 9739
000000c0: 6e3b 093a 1039 ae3b 903a 7d3a 583a 143b
000000d0: a839 f43b b63a 583a fb39 3c3b fd3a 443c
000000e0: ac38 aa3a 233b 5d3c 593c c539 983a bf3b
000000f0: 543b ff39 1a3b 9c3b ff3b 893a dc3b c93a
0.693 1.065 0.664 0.783 0.9443 0.797 0.947 0.768
0.9067 0.9937 0.868 0.872 0.83 0.8145 0.7437 0.842
0.7686 0.9775 0.585 0.955 0.916 0.94 0.7827 0.9863
0.8213 0.967 1.094 0.9004 1.105 0.741 0.764 0.7466
0.9766 0.9443 0.9087 0.836 1.006 1.045 0.9253 0.782
0.4014 1.091 0.8936 0.9526 0.879 0.9854 0.8135 0.8315
0.9424 0.8276 0.941 0.853 0.788 0.7905 1.001 0.801
0.8105 1.101 0.6885 0.679 0.4666 1.041 0.895 0.665
0.9043 0.836 0.773 0.876 0.636 0.945 0.9194 0.9526
0.686 1.102 0.7515 0.9116 0.7183 0.9336 0.902 1.013
0.704 0.739 1.051 0.9556 0.9136 0.983 0.9814 0.913
0.7207 0.8535 0.8286 0.844 0.7515 1.113 1.08 0.6987
0.9287 0.7544 0.633 0.96 0.8203 0.811 0.793 0.885
0.707 0.994 0.839 0.793 0.7476 0.9043 0.8735 1.066
0.584 0.833 0.892 1.091 1.087 0.721 0.824 0.9683
0.916 0.7495 0.8877 0.951 0.9995 0.817 0.9824 0.848

first_stage_model.decoder.norm_out.bias f2 [128]
00000000: fba9 ca14 f8ae 77a8 ccac 44ad b89c 26ae
00000010: a8ac 0c29 939e 2ba8 b9a4 6cab 37a8 459b
00000020: 7ca9 7ba9 9db4 7896 f2a9 27ae 4eb1 cba7
00000030: 3aa8 fba9 3aaa 79aa 6da0 ebb0 45ad f4b0
00000040: 11a6 a9a8 b4aa a2a9 59aa 9ea9 e2aa 1eb4
00000050: 28b0 86a9 ad95 0aaf a6b1 8c97 4eb1 a8b4
00000060: feab d626 a9a4 ebac 53ae 778e 2ea8 00af
00000070: 23ad 42a6 a6af 37b1 75ae dda9 13ae ddb5
00000080: 0e27 01ae c8a8 a6ac 4cb4 9fa7 5da4 25ac
00000090: a5b3 39ad 94b1 23ad 9baf 3daa 8ca3 4c95
000000a0: 51b3 931c 0fa4 6d20 cdaa 36ab 5928 59a8
000000b0: 9fa7 61a9 b2ad ac24 f9af 3cac 45a7 67b2
000000c0: b7a9 6dad a0b2 54aa a9ab 81ad 43a9 eeaa
000000d0: c6ad 81a9 96a5 55ac 93af e6b0 9eb0 041f
000000e0: f8b3 1fac e4a9 3ca8 46a8 d7b2 a6ae 72a9
000000f0: 32a4 3aaf 7fa9 aca9 eca8 80b0 7ea7 389c
-0.04672 0.001169 -0.1089 -0.03488 -0.07495 -0.0823 -0.00461 -0.09607
-0.07275 0.03943 -0.00642 -0.03256 -0.01845 -0.05798 -0.03293 -0.00355
-0.04285 -0.04282 -0.2883 -0.001579 -0.04645 -0.0961 -0.1658 -0.03044
-0.03302 -0.04672 -0.04865 -0.05057 -0.008644 -0.1537 -0.08234 -0.1548
-0.0237 -0.0364 -0.05237 -0.044 -0.0496 -0.04388 -0.05377 -0.2573
-0.1299 -0.04315 -0.001386 -0.11 -0.1765 -0.0018425 -0.1658 -0.291
-0.06244 0.0267 -0.0182 -0.07684 -0.0988 -0.0003946 -0.03265 -0.1094
-0.08026 -0.02444 -0.1195 -0.163 -0.1009 -0.0458 -0.0949 -0.3665
0.02756 -0.0938 -0.03735 -0.07263 -0.2686 -0.02977 -0.01704 -0.06476
-0.2389 -0.0816 -0.1743 -0.08026 -0.11884 -0.04874 -0.01474 -0.001293
-0.2286 0.004467 -0.01585 0.008644 -0.05313 -0.05634 0.03397 -0.03397
-0.02977 -0.04202 -0.089 0.01825 -0.1246 -0.06616 -0.0284 -0.2001
-0.04465 -0.0848 -0.207 -0.04944 -0.05984 -0.086 -0.0411 -0.05414
-0.0902 -0.043 -0.02182 -0.0677 -0.11835 -0.1531 -0.1443 0.00685
-0.249 -0.0644 -0.04602 -0.03308 -0.0334 -0.2137 -0.1039 -0.04254
-0.01639 -0.1129 -0.04294 -0.0443 -0.03845 -0.1406 -0.02927 -0.00412
